cloud-segmentation/notebooks/unet_model.pth (torch, 158893 bytes, 5 tensors)

encoder.0.weight f4 [64, 3, 3, 3]
-0.04635182 0.15929236 0.055748634 0.059326403 -0.014830129 -0.08246927 -0.05464062 0.03843474
-0.18642934 0.014994595 0.016753051 -0.09438763 0.18802497 -0.103086084 -0.18565017 -0.003970134
0.08618941 -0.083309054 -0.010400558 0.060522888 0.08811612 -0.021781463 0.1792685 -0.18832408
0.00056871155 -0.053073682 0.1753595 -0.108767696 -0.14751685 0.042782076 0.057279143 -0.08847042
-0.033029396 0.04026653 0.2079912 0.08877399 -0.0037741673 -0.053709917 -0.1280973 0.1823094
0.020055339 -0.056505583 -0.0046385094 0.03764726 0.24249712 0.07036683 0.056415264 -0.13435581
-0.09670793 -0.05291724 -0.085029945 0.20142685 -0.09811271 0.015670082 -0.030383047 0.00014763436
0.17198463 -0.17846124 0.20193508 -0.009268543 -0.102610305 0.0030471745 -0.11429258 -0.17441013
-0.11400455 -0.12492663 0.20654657 -0.12785913 0.056892537 -0.123126715 -0.1454873 0.079086386
0.1808908 0.12915333 -0.18163826 0.08853307 0.06510328 -0.06866961 -0.15461697 0.19323987
0.071642675 -0.11702115 0.12985525 -0.11302221 0.12322296 0.15499708 0.14313431 0.11024518
0.04066873 -0.13103247 -0.05935108 0.043973822 0.07939524 -0.09824403 -0.14626817 -0.09126062
-0.15362325 -0.08941787 -0.120324306 0.17052762 -0.018294778 0.18371488 0.10405533 0.16622959
0.014225127 -0.049494777 -0.043795668 -0.116916195 -0.15155023 0.034584623 0.14205158 -0.085341
0.12825288 0.008629725 0.07745441 0.18787256 -0.18811245 0.043072663 -0.14542517 -0.054642633
-0.10638459 -0.12063795 -0.13621143 0.036096063 0.07411003 0.084605865 0.1642751 0.04306574
-0.04652523 -0.16127977 0.07912929 0.039397944 -0.15467986 -0.16319674 -0.17459439 -0.16376872
0.12862211 0.11336012 0.17888512 -0.045981072 0.14826083 0.099599704 -0.1318063 -0.16621068
0.08169098 -0.10259782 0.071507 0.0771129 0.079207815 0.18405153 -0.17288156 0.036435626
0.19207394 0.12733372 0.13645613 -0.14770252 0.02366856 -0.1380612 0.09379473 0.096622944
-0.045671973 -0.029093746 -0.09706947 0.15411492 0.055140242 0.1544847 0.070146486 0.04311577
-0.048474375 -0.16171397 -0.13958387 -0.06596628 0.075955 -0.01078827 -0.12621854 0.17646196
0.13857557 0.2018702 0.10100559 -0.047744412 -0.016448675 -0.15173143 0.072951965 0.0022076634
0.18694009 -0.096275836 -0.09685818 -0.12412953 -0.036622263 0.06692472 -0.012603111 0.0075827497
0.09952435 -0.16524188 0.12381933 -0.08685119 0.114826724 -0.12945932 0.100632474 -0.06520516
0.13027829 -0.17058371 -0.052443646 -0.09817998 -0.07233966 -0.09784134 -0.06966791 0.004118154
0.07881059 -0.12380852 0.19691865 -0.076309 -0.016995767 0.123146415 -0.04659227 -0.01550724
-0.03796801 -0.10753974 0.0542217 -0.060252897 -0.09900497 -0.1706203 -0.18984656 0.13995753
0.10175854 0.053718973 -0.17323285 0.043678112 0.1338359 -0.18026964 -0.01097203 0.16390018
0.0007972749 -0.030602409 0.06403255 -0.19569488 0.15376079 -0.02041746 0.0036687467 -0.1391246
-0.09229581 -0.17310989 0.04768432 -0.06224075 0.09985947 0.04653368 0.16585934 0.18556355
-0.045090254 0.052727915 -0.15136416 0.165256 -0.121394284 -0.14557153 0.02388757 -0.03195052
00000000: 68db 3dbd 891d 233e ae58 643d 3e00 733d
00000010: 12fa 72bc a6e5 a8bd d8ce 5fbd bf6d 1d3d
00000020: 55e7 3ebe e4ab 753c b23d 893c 4d4e c1bd
00000030: 9e89 403e cc1e d3bd 141b 3ebe e617 82bb
00000040: 1384 b03d f09d aabd 1a67 2abc d9e6 773d
00000050: 3976 b43d 0a6f b2bc 2992 373e 07d8 40be
00000060: 9615 153a ca63 59bd 7191 333e 99c1 debd
00000070: a80e 17be 423c 2f3d 899d 6a3d fb2f b5bd
00000080: d549 07bd 84ee 243d a5fb 543e 23cf b53d
00000090: 0558 77bb eefe 5bbd f02b 03be 51af 3a3e
000000a0: 184b a43c 6672 67bd a3fe 97bb 0334 1a3d
000000b0: 2a51 783e 7c1c 903d b113 673d 9294 09be
000000c0: cf0e c6bd bfbf 58bd 2e24 aebd d742 4e3e
000000d0: 51ef c8bd 8b5e 803c dee5 f8bc 4cce 1a39
000000e0: bd1c 303e 8bbe 36be 12c8 4e3e 16db 17bc
000000f0: 5a25 d2bd 1bb3 473b 3a12 eabd 9298 32be
00000100: 387b e9bd 88d9 ffbd f280 533e 81ed 02be
00000110: 2608 693d dc29 fcbd 9ffa 14be 0bf8 a13d
00000120: 703b 393e c540 043e 61ff 39be d450 b53d
00000130: de54 853d a7a2 8cbd e953 1ebe ace0 453e
00000140: 65b9 923d c9a8 efbd c6f8 043e 3078 e7bd
00000150: 525c fc3d 8eb7 1e3e cd91 123e 3ac8 e13d
00000160: 4194 263d 602d 06be 1e1a 73bd e51d 343d
00000170: f999 a23d 2a34 c9bd 53c7 15be d9e6 babd
00000180: 6a4f 1dbe b720 b7bd 976c f6bd cb9e 2e3e
00000190: eede 95bc c11f 3c3e f61a d53d 1738 2a3e
000001a0: 8210 693c 09bb 4abd 1663 33bd c271 efbd
000001b0: fc2f 1bbe 9ba8 0d3d f875 113e 43c7 aebd
000001c0: b954 033e b163 0d3c 6ba0 9e3d aa61 403e
000001d0: 8da0 40be f66c 303d 56ea 14be f4d0 5fbd
000001e0: 2ae0 d9bd 0811 f7bd 027b 0bbe 77d9 133d
000001f0: 00c7 973d d745 ad3d bb37 283e b465 303d
00000200: 3d91 3ebd 8626 25be 8a0e a23d bd5f 213d
00000210: 6664 1ebe 0c1d 27be dfc8 32be fdb2 27be
00000220: 84b5 033e 5a29 e83d a92d 373e a656 3cbd
00000230: b0d1 173e eefa cb3d 3bf8 06be 2233 2abe
00000240: 9a4d a73d ce1e d2bd 4372 923d 5eed 9d3d
00000250: b537 a23d 0178 3c3e dd07 31be 863d 153d
00000260: 08af 443e c563 023e 28bb 0b3e 543f 17be
00000270: 91e4 c13c ea5f 0dbe 7417 c03d 40e2 c53d
00000280: 8912 3bbd 0256 eebc 5ccc c6bd 4dd0 1d3e
00000290: bcda 613d 3d31 1e3e f6a8 8f3d 299a 303d
000002a0: 118d 46bd 5998 25be 13ef 0ebe 5419 87bd
000002b0: 4c8e 9b3d 49c1 30bc 6f3f 01be 72b2 343e
000002c0: c1e6 0d3e 10b7 4e3e 05dc ce3d a58f 43bd
000002d0: 5fbf 86bc 7c5f 1bbe d767 953d 72ae 103b
000002e0: 396d 3f3e 442c c5bd 955d c6bd 9f37 febd
000002f0: 3a01 16bd d40f 893d 477d 4ebc b778 f83b
00000300: 6cd3 cb3d 2b35 29be fd94 fd3d 09df b1bd
00000310: 462a eb3d fc90 04be 6618 ce3d 488a 85bd
00000320: ac67 053e 7fad 2ebe 26cf 56bd 9612 c9bd
00000330: d126 94bd 0a61 c8bd 0dae 8ebd 94f1 863b
00000340: 7267 a13d 528f fdbd 0ba5 493e e547 9cbd
00000350: b53a 8bbc 3034 fc3d 89d7 3ebd 1412 7ebc
00000360: 5884 1bbd cc3d dcbd 9317 5e3d becb 76bd
00000370: 1ec3 cabd 17b7 2ebe 2367 42be 0751 0f3e
00000380: c866 d03d 6d08 5c3d f463 31be d2e7 323d
00000390: 470c 093e 9b98 38be 08c4 33bc 73d5 273e
000003a0: 3600 513a e7b1 fabc 7f23 833d 3d64 48be
000003b0: 7873 1d3e 8442 a7bc 5b6f 703b ae76 0ebe
000003c0: 9605 bdbd b843 31be a250 433d 28f0 7ebd
000003d0: 1f83 cc3d 1a9a 3e3d 08d7 293e 5f04 3e3e
000003e0: 8fb0 38bd 3af9 573d 35ff 1abe de38 293e
000003f0: 919d f8bd b410 15be ddaf c33c 8cde 02bd

encoder.0.bias f4 [64]
0.19857687 -0.09502355 0.19156355 -0.15910389 -0.13963638 0.20052123 -0.11702814 0.2457399
0.123372436 -0.1244799 -0.08190466 0.100847065 -0.15395823 0.21396774 0.1971736 -0.011186078
-0.10353809 0.0641057 0.15326887 -0.09074457 0.08416044 -0.18183218 0.2269133 -0.074051134
0.076844126 -0.040560056 -0.039534107 0.09938009 -0.0060403957 0.056889948 -0.104049616 0.092856236
0.16897166 0.029133437 0.22399302 0.16057357 0.05233773 0.21456946 -0.034394346 -0.0659765
0.09630078 0.17976715 0.18862003 0.12292922 0.04107949 -0.10358229 0.17379062 0.20508696
0.07681394 0.13686545 0.14625628 -0.002568078 -0.107654296 -0.14960758 0.10076574 0.10928783
-0.037471525 0.095270164 0.19217484 0.18820499 0.10298138 -0.13155732 -0.14789578 0.12090324
00000000: bc57 4b3e b59b c2bd 3c29 443e 21ec 22be
00000010: d7fc 0ebe 7055 4d3e 73ac efbd 3ea3 7b3e
00000020: b0aa fc3d 51ef febd a1bd a7bd e888 ce3d
00000030: 3aa7 1dbe 5c1a 5b3e e0e7 493e d045 37bc
00000040: c70b d4bd d949 833d 84f2 1c3e 4ad8 b9bd
00000050: 4f5c ac3d 3732 3abe f65b 683e 1fa8 97bd
00000060: 7460 9d3d 4d22 26bd 84ee 21bd ca87 cb3d
00000070: 83ee c5bb 6f05 693d f717 d5bd 692b be3d
00000080: e806 2d3e 3fa9 ee3c 6d5e 653e 666d 243e
00000090: 1660 563d 19b8 5b3e 16e1 0cbd b01e 87bd
000000a0: 5839 c53d e114 383e 9c25 413e 51c2 fb3d
000000b0: f842 283d f422 d4bd 2bf6 313e 5102 523e
000000c0: a150 9d3d 7526 0c3e 35c4 153e 334d 28bb
000000d0: db79 dcbd bb32 19be 455e ce3d 4cd2 df3d
000000e0: be7b 19bd 011d c33d 7bc9 443e cfb8 403e
000000f0: e7e7 d23d f6b6 06be fe71 17be 1e9c f73d

encoder.2.weight f4 [64, 64, 3, 3]
0.05712444 0.011148284 0.029157886 0.029958168 0.052182313 -0.007661931 0.01627884 0.052556496
0.037278343 -0.0023411138 0.007738686 0.014128136 -0.033172835 -0.052759804 -0.056159314 -0.019535977
-0.061509322 -0.024441952 0.018764516 0.06599152 0.005100485 0.029587962 0.031426545 0.04576834
0.021103974 0.023435092 0.035707183 -0.0017976762 0.042135578 0.030761266 0.0025809624 -0.03689585
-0.022023503 -0.004540066 0.026895512 -0.027973263 -0.03409238 -0.011327175 -0.027129646 -0.0038574366
-0.011353507 -0.0029935674 0.027347561 -0.002673939 -0.024922902 0.0036261901 0.018363012 -0.0049658306
0.03640259 0.0470221 0.02061158 0.032470375 -0.0051775738 -0.003595726 -0.009861959 0.019911464
-0.026084008 0.01585616 0.02738544 -0.013006325 -0.005078742 -0.0012787968 -0.006998881 0.018506205
0.009639053 0.05751312 0.054848947 0.062378492 0.059301272 0.036279984 0.026669258 -0.0053515043
0.2107666 0.14770006 0.20970899 0.19620752 0.16292626 0.19356354 0.1818095 0.16549854
0.22262204 -0.004873707 -0.0111338 -0.014834554 -0.0120197935 0.011971297 -0.031926002 0.0386437
-0.013107658 -0.0125631485 -0.024532719 0.04087538 0.011343892 0.044782363 0.034613382 -0.02233377
-0.015443282 0.009548722 0.031382818 0.018188464 0.041222636 -0.02233936 0.006055297 0.008426553
0.01921978 -0.010412922 0.008166805 -0.009475875 0.010964247 -0.013485536 -0.009889036 0.035895485
-0.011267105 -0.018179748 -0.022275941 0.043903336 0.0010682424 0.03975886 0.02954886 0.01736821
0.006567806 0.03299732 0.010557008 -0.017816767 0.028797317 0.032329243 -0.012110227 0.030432967
0.063458845 0.069589615 0.014266086 0.023478415 -0.0014103249 0.064725414 0.021266788 0.04465059
-0.023694213 0.039122626 0.0109597705 0.0021496993 0.0289725 0.023723982 0.029405465 0.023262516
-0.033449344 -0.0410842 -0.017729303 -0.08648588 -0.060464703 -0.03914798 -0.064164944 -0.01876373
-0.05058857 0.016700042 0.056811187 0.015650593 0.036576718 0.05895623 0.00836358 0.008335782
0.016482208 0.02116016 0.05023736 0.048030805 0.030751662 0.058201604 0.06004601 -0.0016654432
0.001334319 0.0058330656 0.050873786 -0.0051911552 0.0130987475 -0.0030620568 -0.016021855 0.041428663
-0.036601987 -0.01979292 0.043032832 -0.024109768 0.040317938 0.011227496 0.020656781 0.023721961
-0.032192696 -0.008447845 -0.027611457 0.037169237 0.04871514 0.01307533 -0.011501746 0.029017936
-0.014033189 -0.02661211 0.038334355 -0.02826058 0.0067117075 0.02851526 0.03534306 0.043095477
-0.016306048 -0.01379542 0.05784202 0.0122499345 0.03665304 0.06006356 0.04683895 -0.018134484
-0.0098893335 0.022678694 -0.006903523 0.044064134 -0.016372157 -0.032945186 0.030362237 0.00096873613
0.037643947 -0.02473619 0.01847879 0.019826198 0.04088708 0.018734446 0.04572559 0.0007669664
0.020204447 0.0059277676 -0.02737575 0.044221185 0.020761345 -0.012995855 -0.009084594 0.02914295
-0.020529142 0.04639003 -0.031830765 -0.027319197 -0.010100595 0.038660135 -0.027731435 -0.025392726
0.032413453 0.012579704 0.0077304817 -0.020700792 0.013914649 -0.02122072 -0.0063886223 0.022885244
0.022520998 0.030293511 0.032954723 0.055413406 -0.01569902 -0.027464809 0.025526509 0.039638173
00000000: 51fb 693d 4ba7 363c 85dc ee3c d56a f53c
00000010: 1fbd 553d f010 fbbb 345b 853c 7b45 573d
00000020: 2db1 183d 5f6d 19bb ce94 fd3b b379 673c
00000030: 3de0 07bd aa1a 58bd 4f07 66bd ea09 a0bc
00000040: 33f1 7bbd 7d3a c8bc 0bb8 993c 9026 873d
00000050: f821 a73b 7462 f23c 1fb9 003d 9577 3b3d
00000060: 3ee2 ac3c f3fa bf3c b241 123d 01a0 ebba
00000070: 5b96 2c3d 0dff fb3c 5d25 293b 1a20 17bd
00000080: a26a b4bc d5c4 94bb fa53 dc3c 2f28 e5bc
00000090: 74a4 0bbd 9e95 39bc fe3e debc 0ccd 7cbb
000000a0: 0f04 3abc ba2f 44bb fe07 e03c 413d 2fbb
000000b0: 1d2b ccbc 60a5 6d3b 076e 963c 68b8 a2bb
000000c0: e21a 153d 3f9a 403d 9ed9 a83c a8ff 043d
000000d0: a3a8 a9bb 46a6 6bbb 0e94 21bc 5e1d a33c
000000e0: 21ae d5bc c7e4 813c 6e57 e03c 7b18 55bc
000000f0: 936b a6bb 4d9d a7ba df56 e5bb 539a 973c
00000100: 1eed 1d3c e192 6b3d 4aa9 603d 9780 7f3d
00000110: e4e5 723d 529a 143d 7d79 da3c ac5b afbb
00000120: 33d3 573e af3e 173e f4bd 563e a0ea 483e
00000130: 24d6 263e 8535 463e 452c 3a3e 7378 293e
00000140: 08f7 633e 9eb3 9fbb 8b6a 36bc a10c 73bc
00000150: abee 44bc 4223 443c d7c4 02bd db48 1e3d
00000160: 81c1 56bc aad5 4dbc d7f8 c8bc f16c 273d
00000170: bbdb 393c b66d 373d c3c6 0d3d 4ff5 b6bc
00000180: d205 7dbc 3e72 1c3c 458b 003d f9ff 943c
00000190: 11d9 283d 0901 b7bc 836b c63b 860f 0a3c
000001a0: cd72 9d3c f69a 2abc 10ce 053c b340 1bbc
000001b0: 63a3 333c 70f2 5cbc a005 22bc 2507 133d
000001c0: aa99 38bc b2ed 94bc 097c b6bc fcd3 333d
000001d0: 4404 8c3a 30da 223d 7310 f23c c747 8e3c
000001e0: c036 d73b 3328 073d 4df7 2c3c 78f4 91bc
000001f0: 5ae8 eb3c ab6b 043d f969 46bc 8f4e f93c
00000200: b6f6 813d 0085 8e3d 4dbc 693c ce55 c03c
00000210: a7da b8ba c28e 843d b037 ae3c 89e3 363d
00000220: 5e1a c2bc 0c3f 203d 9c90 333c f8e1 0c3b
00000230: bc57 ed3c cc58 c23c bbe3 f03c 0891 be3c
00000240: 2e02 09bd e847 28bd 0b3d 91bc 821f b1bd
00000250: d6a9 77bd a259 20bd e968 83bd 65b6 99bc
00000260: f635 4fbd 87ce 883c d9b2 683d ac35 803c
00000270: 78d1 153d 167c 713d 6607 093c ce92 083c
00000280: b205 873c 1258 ad3c b1c5 4d3d f3bb 443d
00000290: e9ea fb3c ce64 6e3d cef2 753d 004b daba
000002a0: 51e4 ae3a 4d23 bf3b 0861 503d 911a aabb
000002b0: 219c 563c caac 48bb 4440 83bc 1ab1 293d
000002c0: f7eb 15bd c324 a2bc 3243 303d d981 c5bc
000002d0: 6c24 253d 88f3 373c 6938 a93c 8f54 c23c
000002e0: 7ddc 03bd d468 0abc 6c31 e2bc c53e 183d
000002f0: 8789 473d e939 563c d271 3cbc 06b7 ed3c
00000300: 76eb 65bc a401 dabc 7c04 1d3d bb82 e7bc
00000310: e2ed db3b d698 e93c e2c3 103d e284 303d
00000320: 4394 85bc 2f06 62bc c1eb 6c3d f3b3 483c
00000330: 8021 163d 3505 763d 33da 3f3d c58e 94bc
00000340: df06 22bc abc8 b93c f336 e2bb 987c 343d
00000350: e71e 86bc 88f1 06bd 3aba f83c c8f2 7d3a
00000360: 8a30 1a3d 8da3 cabc d560 973c 8d6a a23c
00000370: 3679 273d fb78 993c c24a 3b3d 3e0e 493a
00000380: cc83 a53c b83d c23b 1c43 e0bc 4621 353d
00000390: b213 aa3c 91ec 54bc 8dd7 14bc 32bd ee3c
000003a0: bb2c a8bc 7903 3e3d fa60 02bd 82cc dfbc
000003b0: f77c 25bc 175a 1e3d 092d e3bc 6804 d0bc
000003c0: f8c3 043d 1a1b 4e3c fb4f fd3b b594 a9bc
000003d0: 45fa 633c 13d7 adbc a657 d1bb d679 bb3c
000003e0: f57d b83c 192a f83c 88fb 063d 2bf9 623d
000003f0: 3b9b 80bc e1fd e0bc f81c d13c a35b 223d

encoder.2.bias f4 [64]
0.056294356 0.02141143 0.03807092 0.057069007 -0.02364546 0.0146181295 -0.03384216 0.011257917
0.034260835 0.016584665 0.04485286 -0.019700378 0.047127623 0.0032408333 0.01467827 -0.020622056
-0.012559929 -0.015151011 0.027666906 0.0475177 -0.017577393 0.03687428 0.02661793 0.028073754
-0.015365589 0.007061486 -0.002618301 0.009560319 0.053685315 0.00088406366 0.04404736 0.011591342
0.045001566 -0.026179645 0.019230857 0.013656327 0.007229423 0.03102426 -0.023129307 0.019430468
0.033262454 0.03181522 -0.01883694 0.00422753 0.04906698 0.042796716 0.028125722 0.029652124
0.04275314 -0.023144545 -0.012292509 -0.012480964 -0.01453597 -0.009635564 -0.012029852 0.05703211
-0.038950916 0.04527486 -0.031871557 -0.034899056 -0.041743364 0.046225928 0.009106077 -0.016521115
00000000: e994 663d 0667 af3c 41f0 1b3d 31c1 693d
00000010: 20b4 c1bc e180 6f3c 149e 0abd 2073 383c
00000020: 1755 0c3d 90dc 873c a2b7 373d b062 a1bc
00000030: e508 413d 2964 543b 207d 703c 96ef a8bc
00000040: 29c8 4dbc f23b 78bc b5a5 e23c eba1 423d
00000050: 77fe 8fbc 7c09 173d d80d da3c eefa e53c
00000060: f4bf 7bbc 0a64 e73b cd97 2bbb e2a2 1c3c
00000070: 22e5 5b3d 82c0 673a 016b 343d 9de9 3d3c
00000080: 9053 383d b276 d6bc 088a 9d3c c9be 5f3c
00000090: cce4 ec3b 9726 fe3c ac79 bdbc a52c 9f3c
000000a0: 363e 083d ad50 023d ed4f 9abc 1887 8a3b
000000b0: 75fa 483d 9c4b 2f3d ea67 e63c 03e9 f23c
000000c0: eb1d 2f3d a199 bdbc 8566 49bc f57c 4cbc
000000d0: 4728 6ebc 7cde 1dbc db18 45bc 809a 693d
000000e0: ff8a 1fbd 2272 393d c08b 02bd 50f2 0ebd
000000f0: 17fb 2abd 6657 3d3d a831 153c 4a57 87bc

decoder.0.weight f4 [64, 1, 2, 2]
0.0299641 0.35510153 -0.33013862 -0.00058028306 0.17262636 0.46512473 0.41008162 -0.065616824
0.21493448 0.36536035 0.10706686 0.3293808 0.5134663 -0.16777948 0.424609 0.5163337
-0.26790136 0.021302277 0.46768045 -0.44952622 -0.23319222 0.21438965 0.12493858 0.44141033
-0.4953367 -0.117334075 -0.17034572 0.039755072 0.18529677 0.39513418 -0.26475054 -0.40654087
0.03736352 0.124078244 -0.31106064 0.47334844 -0.1154281 0.52012897 -0.37460297 0.054138295
0.3247401 0.24334326 0.100538 0.40775186 -0.41310814 -0.16716327 0.43358603 -0.38913676
-0.07870966 0.23032615 -0.10946202 0.37010756 -0.00017123972 0.21448843 0.42481193 -0.29014093
0.07332791 -0.33235687 -0.4330764 0.40123364 -0.33395317 -0.33934265 0.46348697 -0.3479629
-0.021905057 -0.4410119 0.19777249 -0.2254981 -0.19279538 0.25512382 -0.44099388 -0.4213742
-0.22018448 0.11455125 0.3621707 -0.29922336 0.14995217 0.4590763 0.19821864 -0.32721475
0.2259232 -0.08030706 0.094833784 -0.18635535 0.30886465 -0.1266334 -0.026472393 0.32964584
-0.12760897 0.24692649 0.08956317 0.09633191 -0.14781494 0.42148972 0.06411582 0.34146118
-0.098818496 -0.48732638 -0.076678395 -0.31294808 0.1194945 0.48724914 0.081964724 0.16154201
0.46323943 0.16034617 -0.34379244 -0.17343909 -0.021680448 0.48449668 0.41124767 0.49558336
-0.025358511 0.43050313 -0.36035892 0.4291712 -0.49094152 0.37657392 0.46054626 -0.27138326
0.38731313 0.104402125 -0.44707462 0.3268152 0.38779148 0.3816923 -0.42409095 0.078171484
0.42579553 0.24072857 -0.28304932 -0.2731678 0.3981885 -0.42471448 0.47871044 -0.18458058
-0.17535363 -0.058382582 0.39290994 -0.06109799 0.48563927 0.009849696 -0.21435344 0.062214114
0.53558874 -0.112543836 -0.31248564 0.13588183 -0.34499806 -0.12578611 -0.009560771 -0.14420535
-0.04754908 -0.14782672 0.30820972 -0.44438502 -0.004602975 0.4075689 -0.0750924 0.14017431
-0.13044542 -0.25974905 0.11012316 0.061423644 0.13901627 -0.035179075 -0.39092904 0.36202347
0.31462944 -0.39610633 0.4932374 0.4369291 0.018949566 0.002706538 -0.25897646 -0.2031958
0.44592136 0.22367162 0.3776 0.0605946 0.13397856 0.015116332 0.31194842 -0.00257884
0.17514263 0.3539351 0.2043362 -0.35634816 0.2967326 -0.3531184 -0.28774345 -0.20588322
-0.0835363 0.110217854 -0.20749784 0.1977775 -0.51515794 0.060963716 0.16204083 0.34236082
-0.36305073 -0.011574639 -0.38243687 -0.038132817 -0.23173708 -0.07525761 -0.41024506 -0.021112647
-0.48302355 0.048364744 0.23104174 0.4418928 -0.28044757 0.061428722 0.45901763 -0.46987748
0.28718063 0.13898157 -0.0044915117 0.39581853 0.0852947 0.082504995 -0.39093655 0.36698735
-0.2650557 -0.28446335 -0.47849378 -0.086036496 0.4699863 0.18738188 -0.026327617 -0.036685884
-0.46662518 -0.31314132 -0.098478295 -0.1787133 -0.4358385 -0.48491055 -0.36798474 0.35013556
-0.1805178 0.4108783 0.35559133 -0.23787546 0.13843498 0.22655262 -0.055695016 -0.21913321
-0.041094713 -0.41890407 0.105145626 -0.14332905 -0.37851468 -0.1075023 0.35235304 0.33119833
00000000: 4677 f53c decf b53e ee07 a9be 231e 18ba
00000010: f7c4 303e d424 ee3e 38f6 d13e 1d62 86bd
00000020: c917 5c3e 8310 bb3e df45 db3d 9aa4 a83e
00000030: 8772 033f 62ce 2bbe 5a66 d93e 722e 043f
00000040: 5e2a 89be 1d82 ae3c d073 ef3e 4d28 e6be
00000050: f1c9 6ebe f688 5b3e ccdf ff3d 8900 e23e
00000060: c69c fdbe d94c f0bd 1c6f 2ebe 37d6 223d
00000070: 70be 3d3e 074f ca3e 628d 87be 2026 d0be
00000080: 7e0a 193d bc1c fe3d 5743 9fbe ba5a f23e
00000090: 9165 ecbd 2c27 053f f6cb bfbe 1ec0 5d3d
000000a0: 5644 a63e fa2e 793e dee6 cd3d dac4 d03e
000000b0: e982 d3be d92c 2bbe fdfe dd3e ef3c c7be
000000c0: 8832 a1bd 9eda 6b3e a02d e0bd bd7e bd3e
000000d0: d08e 33b9 dba2 5b3e f380 d93e 5a8d 94be
000000e0: f12c 963d ae2a aabe 31bc ddbe 7f6e cd3e
000000f0: e9fb aabe 52be adbe 2a4e ed3e 3128 b2be
00000100: 3c72 b3bc 50cc e1be df84 4a3e f9e8 66be
00000110: 276c 45be 979f 823e f3c9 e1be 5cbe d7be
00000120: 0a78 61be d999 ea3d 706e b93e ce33 99be
00000130: 108d 193e 0c0c eb3e d4f9 4a3e b188 a7be
00000140: 6958 673e 0778 a4bd 3738 c23d f0d3 3ebe
00000150: 8223 9e3e 30ac 01be a2dc d8bc 57c7 a83e
00000160: edab 02be 4cda 7c3e e56c b73d aa49 c53d
00000170: cd5c 17be 80cd d73e 284f 833d 00d4 ae3e
00000180: 5a61 cabd d882 f9be 9009 9dbd bb3a a0be
00000190: 88b9 f43d b878 f93e 1fdd a73d 456b 253e
000001a0: b82d ed3e c931 243e 9005 b0be 049a 31be
000001b0: 329b b1bc f30f f83e 0e8f d23e 1abd fd3e
000001c0: a7bc cfbc e86a dc3e f780 b8be 54bc db3e
000001d0: b05c fbbe 4cce c03e b8cc eb3e bff2 8abe
000001e0: e84d c63e c8d0 d53d f7e6 e4be 5254 a73e
000001f0: 9b8c c63e 2c6d c33e 7322 d9be 5f18 a03d
00000200: df01 da3e 8d81 763e d7eb 90be a6dc 8bbe
00000210: 5ddf cb3e 2d74 d9be 8919 f53e b102 3dbe
00000220: e78f 33be 9322 6fbd 7e2b c93e e341 7abd
00000230: b6a5 f83e 9f60 213c 787f 5bbe 3ad4 7e3d
00000240: 581c 093f 627d e6bd 1efe 9fbe 9b24 0b3e
00000250: 96a3 b0be 13ce 00be c8a4 1cbc 91aa 13be
00000260: d3c2 42bd e35f 17be aacd 9d3e 6f86 e3be
00000270: 8ed4 96bb dfac d03e 0bca 99bd db89 0f3e
00000280: 7c93 05be d4fd 84be 4088 e13d 5c97 7b3d
00000290: 485a 0e3e ef17 10bd da27 c8be 245b b93e
000002a0: 1c17 a13e 73ce cabe 9d89 fc3e 2cb5 df3e
000002b0: 1f3c 9b3c 2c60 313b 9098 84be 8f12 50be
000002c0: ce4f e43e 2c0a 653e ca54 c13e 0b32 783d
000002d0: ad31 093e 7eaa 773c b4b7 9f3e c101 29bb
000002e0: 9758 333e fb36 b53e 823d 513e 4473 b6be
000002f0: 56ed 973e efcb b4be 1c53 93be 0dd3 52be
00000300: 1415 abbd e6b9 e13d 507a 54be 2f86 4a3e
00000310: 64e1 03bf 17b5 793d 08ee 253e eb49 af3e
00000320: c9e1 b9be 8ea3 3dbc c4ce c3be 2831 1cbd
00000330: 7c4c 6dbe a920 9abd a40b d2be 6ef4 acbc
00000340: dd4e f7be 1c1a 463d 3596 6c3e c63f e23e
00000350: d396 8fbe af9c 7b3d 5c04 eb3e c893 f0be
00000360: 5709 933e 2f51 0e3e 882d 93bb baa8 ca3e
00000370: fdae ae3d 61f8 a83d d628 c8be c4e5 bb3e
00000380: 61b5 87be 2ea5 91be 23fd f4be e733 b0bd
00000390: 0ba2 f03e 09e1 3f3e 04ad d7bc f043 16bd
000003a0: 7fe9 eebe 0f54 a0be fdae c9bd 9f00 37be
000003b0: 3926 dfbe 3246 f8be 7f68 bcbe f844 b33e
000003c0: a8d9 38be a45e d23e 1110 b63e a095 73be
000003d0: e6c1 0d3e 69fd 673e 7520 64bd 7564 60be
000003e0: ee52 28bd 987a d6be 9756 d73d dac4 12be
000003f0: adcc c1be 2a2a dcbd 9e67 b43e d492 a93e
